{"id": "193f0d4c-3dc9-4414-a786-2e6066162180", "timestamp": "2025-11-20T00:08:34.064481", "experiment_name": "NASCNN_V13_OnlyCIFAR10", "device": "cuda", "model_class": "NASCNN15", "model_repr": "NASCNN15(\n  (conv1): Conv2d(3, 36, kernel_size=(3, 3), stride=(1, 1), padding=(1, 1), bias=False)\n  (bn1): BatchNorm2d(36, eps=1e-05, momentum=0.1, affine=True, track_running_stats=True)\n  (conv2): Conv2d(36, 48, kernel_size=(3, 3), stride=(1, 1), padding=(1, 1), bias=False)\n  (bn2): BatchNorm2d(48, eps=1e-05, momentum=0.1, affine=True, track_running_stats=True)\n  (conv3): Conv2d(84, 36, kernel_size=(3, 3), stride=(1, 1), padding=(1, 1), bias=False)\n  (bn3): BatchNorm2d(36, eps=1e-05, momentum=0.1, affine=True, track_running_stats=True)\n  (conv4): Conv2d(120, 36, kernel_size=(5, 5), stride=(1, 1), padding=(2, 2), bias=False)\n  (bn4): BatchNorm2d(36, eps=1e-05, momentum=0.1, affine=True, track_running_stats=True)\n  (conv5): Conv2d(72, 48, kernel_size=(3, 7), stride=(1, 1), padding=(1, 3), bias=False)\n  (bn5): BatchNorm2d(48, eps=1e-05, momentum=0.1, affine=True, track_running_stats=True)\n  (conv6): Conv2d(168, 48, kernel_size=(7, 7), stride=(1, 1), padding=(3, 3), bias=False)\n  (bn6): BatchNorm2d(48, eps=1e-05, momentum=0.1, affine=True, track_running_stats=True)\n  (conv7): Conv2d(216, 48, kernel_size=(7, 7), stride=(1, 1), padding=(3, 3), bias=False)\n  (bn7): BatchNorm2d(48, eps=1e-05, momentum=0.1, affine=True, track_running_stats=True)\n  (conv8): Conv2d(132, 36, kernel_size=(7, 3), stride=(1, 1), padding=(3, 1), bias=False)\n  (bn8): BatchNorm2d(36, eps=1e-05, momentum=0.1, affine=True, track_running_stats=True)\n  (conv9): Conv2d(168, 36, kernel_size=(7, 1), stride=(1, 1), padding=(3, 0), bias=False)\n  (bn9): BatchNorm2d(36, eps=1e-05, momentum=0.1, affine=True, track_running_stats=True)\n  (conv10): Conv2d(324, 36, kernel_size=(7, 7), stride=(1, 1), padding=(3, 3), bias=False)\n  (bn10): BatchNorm2d(36, eps=1e-05, momentum=0.1, affine=True, track_running_stats=True)\n  (conv11): Conv2d(336, 36, kernel_size=(5, 7), stride=(1, 1), padding=(2, 3), bias=False)\n  (bn11): BatchNorm2d(36, eps=1e-05, momentum=0.1, affine=True, track_running_stats=True)\n  (conv12): Conv2d(240, 48, kernel_size=(7, 7), stride=(1, 1), padding=(3, 3), bias=False)\n  (bn12): BatchNorm2d(48, eps=1e-05, momentum=0.1, affine=True, track_running_stats=True)\n  (conv13): Conv2d(360, 48, kernel_size=(7, 5), stride=(1, 1), padding=(3, 2), bias=False)\n  (bn13): BatchNorm2d(48, eps=1e-05, momentum=0.1, affine=True, track_running_stats=True)\n  (conv14): Conv2d(180, 48, kernel_size=(7, 5), stride=(1, 1), padding=(3, 2), bias=False)\n  (bn14): BatchNorm2d(48, eps=1e-05, momentum=0.1, affine=True, track_running_stats=True)\n  (conv15): Conv2d(276, 48, kernel_size=(7, 5), stride=(1, 1), padding=(3, 2), bias=False)\n  (bn15): BatchNorm2d(48, eps=1e-05, momentum=0.1, affine=True, track_running_stats=True)\n  (fc): Linear(in_features=48, out_features=10, bias=True)\n  (final_activation): Softmax(dim=1)\n)", "config": {"experiment_name": "NASCNN_V13_OnlyCIFAR10", "lr": 0.1, "epochs": 300, "batch_size": 128, "es_patience": 20, "lr_scheduler": true, "lr_patience": 10, "momentum": 0.9, "weight_decay": 0.0001, "nesterov": true, "use_scheduler": true, "label_smoothing": 0.0, "optimizer": "SGD", "base_dir": "..\\experimen
…
