{"id": "a127ffed-e964-4e77-a01b-390fb6a5aefc", "timestamp": "2025-11-17T16:15:12.621241", "experiment_name": "Grupo_3_V6", "device": "cuda", "model_class": "NASCNN15", "model_repr": "NASCNN15(\n  (conv1): Conv2d(3, 36, kernel_size=(3, 3), stride=(1, 1), padding=(1, 1))\n  (bn1): BatchNorm2d(36, eps=1e-05, momentum=0.1, affine=True, track_running_stats=True)\n  (conv2): Conv2d(36, 48, kernel_size=(3, 3), stride=(1, 1), padding=(1, 1))\n  (bn2): BatchNorm2d(48, eps=1e-05, momentum=0.1, affine=True, track_running_stats=True)\n  (conv3): Conv2d(84, 36, kernel_size=(3, 3), stride=(1, 1), padding=(1, 1))\n  (bn3): BatchNorm2d(36, eps=1e-05, momentum=0.1, affine=True, track_running_stats=True)\n  (conv4): Conv2d(84, 36, kernel_size=(3, 5), stride=(1, 1), padding=(1, 2))\n  (bn4): BatchNorm2d(36, eps=1e-05, momentum=0.1, affine=True, track_running_stats=True)\n  (conv5): Conv2d(72, 48, kernel_size=(5, 3), stride=(1, 1), padding=(2, 1))\n  (bn5): BatchNorm2d(48, eps=1e-05, momentum=0.1, affine=True, track_running_stats=True)\n  (conv6): Conv2d(84, 36, kernel_size=(1, 7), stride=(1, 1), padding=(0, 3))\n  (bn6): BatchNorm2d(36, eps=1e-05, momentum=0.1, affine=True, track_running_stats=True)\n  (conv7): Conv2d(84, 48, kernel_size=(7, 1), stride=(1, 1), padding=(3, 0))\n  (bn7): BatchNorm2d(48, eps=1e-05, momentum=0.1, affine=True, track_running_stats=True)\n  (conv8): Conv2d(84, 48, kernel_size=(3, 5), stride=(1, 1), padding=(1, 2))\n  (bn8): BatchNorm2d(48, eps=1e-05, momentum=0.1, affine=True, track_running_stats=True)\n  (conv9): Conv2d(96, 64, kernel_size=(5, 3), stride=(1, 1), padding=(2, 1))\n  (bn9): BatchNorm2d(64, eps=1e-05, momentum=0.1, affine=True, track_running_stats=True)\n  (conv10): Conv2d(112, 64, kernel_size=(5, 7), stride=(1, 1), padding=(2, 3))\n  (bn10): BatchNorm2d(64, eps=1e-05, momentum=0.1, affine=True, track_running_stats=True)\n  (conv11): Conv2d(128, 64, kernel_size=(7, 5), stride=(1, 1), padding=(3, 2))\n  (bn11): BatchNorm2d(64, eps=1e-05, momentum=0.1, affine=True, track_running_stats=True)\n  (conv12): Conv2d(128, 64, kernel_size=(3, 7), stride=(1, 1), padding=(1, 3))\n  (bn12): BatchNorm2d(64, eps=1e-05, momentum=0.1, affine=True, track_running_stats=True)\n  (conv13): Conv2d(128, 64, kernel_size=(7, 3), stride=(1, 1), padding=(3, 1))\n  (bn13): BatchNorm2d(64, eps=1e-05, momentum=0.1, affine=True, track_running_stats=True)\n  (conv14): Conv2d(128, 64, kernel_size=(5, 7), stride=(1, 1), padding=(2, 3))\n  (bn14): BatchNorm2d(64, eps=1e-05, momentum=0.1, affine=True, track_running_stats=True)\n  (conv15): Conv2d(128, 64, kernel_size=(7, 1), stride=(1, 1), padding=(3, 0))\n  (bn15): BatchNorm2d(64, eps=1e-05, momentum=0.1, affine=True, track_running_stats=True)\n  (fc): Linear(in_features=64, out_features=10, bias=True)\n  (final_activation): Softmax(dim=1)\n)", "config": {"experiment_name": "Grupo_3_V6", "lr": 0.1, "epochs": 10, "batch_size": 128, "es_patience": 10, "lr_scheduler": true, "lr_patience": 3, "momentum": 0.9, "weight_decay": 0.0001, "nesterov": true, "use_scheduler": true, "label_smoothing": 0.05, "optimizer": "SGD", "base_dir": "..\\experiments\\Grupo_3_V
…
rms:\nCompose(\n      Resize(size=[40, 40], interpolation=InterpolationMode.BILINEAR, antialias=True)\n      CenterCrop(size=(32, 32))\n      ToImage()\n      ToDtype(scale=True)\n      ZCAWhitening()\n      Identity()\n)", "results": {"best_epoch": 10, "best_val_acc": 0.7861, "final_val_acc": 0.7861, "min_val_loss": 0.8603591530799866, "final_val_loss": 0.8603591530799866, "train_epochs": 10}}
{"id": "d91c0b3d-e6af-4727-9611-c58c04ff2fab", "timestamp": "2025-11-17T17:16:43.391368", "experiment_name": "Grupo_3_V6", "device": "cuda", "model_class": "NASCNN15", "model_repr": "NASCNN15(\n  (conv1): Conv2d(3, 36, kernel_size=(3, 3), stride=(1, 1), padding=(1, 1))\n  (bn1): BatchNorm2d(36, eps=1e-05, momentum=0.1, affine=True, track_running_stats=True)\n  (conv2): Conv2d(36, 48, kernel_size=(3, 3), stride=(1, 1), padding=(1, 1))\n  (bn2): BatchNorm2d(48, eps=1e-05, momentum=0.1, affine=True, track_running_stats=True)\n  (conv3): Conv2d(84, 36, kernel_size=(3, 3), stride=(1, 1), padding=(1, 1))\n  (bn3): BatchNorm2d(36, eps=1e-05, momentum=0.1, affine=True, track_running_stats=True)\n  (conv4): Conv2d(84, 36, kernel_size=(3, 5), stride=(1, 1), padding=(1, 2))\n  (bn4): BatchNorm2d(36, eps=1e-05, momentum=0.1, affine=True, track_running_stats=True)\n  (conv5): Conv2d(72, 48, kernel_size=(5, 3), stride=(1, 1), padding=(2, 1))\n  (bn5): BatchNorm2d(48, eps=1e-05, momentum=0.1, affine=True, track_running_stats=True)\n  (conv6): Conv2d(84, 36, kernel_size=(1, 7), stride=(1, 1), padding=(0, 3))\n  (bn6): BatchNorm2d(36, eps=1e-05, momentum=0.1, affine=True, track_running_stats=True)\n  (conv7): Conv2d(84, 48, kernel_size=(7, 1), stride=(1, 1), padding=(3, 0))\n  (bn7): BatchNorm2d(48, eps=1e-05, momentum=0.1, affine=True, track_running_stats=True)\n  (conv8): Conv2d(84, 48, kernel_size=(3, 5), stride=(1, 1), padding=(1, 2))\n  (bn8): BatchNorm2d(48, eps=1e-05, momentum=0.1, affine=True, track_running_stats=True)\n  (conv9): Conv2d(96, 64, kernel_size=(5, 3), stride=(1, 1), padding=(2, 1))\n  (bn9): BatchNorm2d(64, eps=1e-05, momentum=0.1, affine=True, track_running_stats=True)\n  (conv10): Conv2d(112, 64, kernel_size=(5, 7), stride=(1, 1), padding=(2, 3))\n  (bn10): BatchNorm2d(64, eps=1e-05, momentum=0.1, affine=True, track_running_stats=True)\n  (conv11): Conv2d(128, 64, kernel_size=(7, 5), stride=(1, 1), padding=(3, 2))\n  (bn11): BatchNorm2d(64, eps=1e-05, momentum=0.1, affine=True, track_running_stats=True)\n  (conv12): Conv2d(128, 64, kernel_size=(3, 7), stride=(1, 1), padding=(1, 3))\n  (bn12): BatchNorm2d(64, eps=1e-05, momentum=0.1, affine=True, track_running_stats=True)\n  (conv13): Conv2d(128, 64, kernel_size=(7, 3), stride=(1, 1), padding=(3, 1))\n  (bn13): BatchNorm2d(64, eps=1e-05, momentum=0.1, affine=True, track_running_stats=True)\n  (conv14): Conv2d(128, 64, kernel_size=(5, 7), stride=(1, 1), padding=(2, 3))\n  (bn14): BatchNorm2d(64, eps=1e-05, momentum=0.1, affine=True, track_running_stats=True)\n  (conv15): Conv2d(128, 64, kernel_size=(7, 1), stride=(1, 1), padding=(3, 0))\n  (bn15): BatchNorm2d(64, eps=1e-05, momentum=0.1, affine=True, track_running_stats=True)\n  (fc): Linear(in_features=64, out_features=10, bias=True)\n  (final_activation): Softmax(dim=1)\n)", "config": {"experiment_name": "Grupo_3_V6", "lr": 0.1, "epochs": 5, "batch_size": 128, "es_patience": 10, "lr_scheduler": true, "lr_patience": 3, "momentum": 0.9, "weight_decay": 0.0001, "nesterov": true, "use_scheduler": true, "label_smoothing": 0.05, "optimizer": "SGD", "base_dir": "..\\experiments\\Grupo_3_V6
…
